atlas_gnn/gnn_small.onnx (onnx, 565280 bytes, 107 tensors)

node_encoder.0.weight f4 [32, 12]
0	0x3c02d689	0.0079857195
1	0xbc96253e	-0.018328305
2	0xb915dd2c	-0.0001429214
3	0xbb4d6f8c	-0.0031347005
4	0x3c16ac90	0.009196416
5	0xbc7efc04	-0.015563015
6	0xbc03ef65	-0.008052682
7	0xbbcda466	-0.0062757013
8	0x3c72fafd	0.014830348
9	0x3d099028	0.033584744
10	0x3c28653a	0.010278041
11	0x3c0f5b44	0.008749787
12	0xbc32c6df	-0.010911672
13	0xbcb54b71	-0.0221307
14	0x3ca4b2be	0.020104762
15	0xbace596f	-0.0015743206
16	0xbc2d89d7	-0.010591946
17	0xbccda01d	-0.025100762
18	0x3c3f4f79	0.011676663
19	0xbbd66d05	-0.006543758
20	0xbc5435cd	-0.01295228
21	0x3d41b625	0.047292847
22	0x3bcef153	0.006315389
23	0xbbe520dd	-0.006992443
24	0xbd79998f	-0.06093746
25	0xbc3f2cf4	-0.0116684325
26	0x3b766120	0.0037594512
27	0x3a89450f	0.0010472852
28	0xbd7ae19b	-0.06125031
29	0xbc4ee289	-0.012627252
30	0xbaca1afa	-0.0015419417
31	0x3a9c58f4	0.0011928366
32	0xbd4f55a6	-0.05061879
33	0x3cc50d05	0.02405406
34	0xbb96c50c	-0.0046011265
35	0xbaa3539d	-0.0012460832
36	0xbb778766	-0.0037769913
37	0xbca07d85	-0.019591102
38	0xbb75964f	-0.0037473624
39	0xbbd3601c	-0.006450666
40	0xbb9d4062	-0.004798935
41	0xbcbcb645	-0.023036132
42	0xbbd46ae6	-0.00648247
43	0xbc00bea0	-0.007857949
44	0xbb752872	-0.003740814
45	0x3d2e25d5	0.04251655
46	0x3935a63d	0.00017323434
47	0xbc060dd1	-0.008182005
48	0xba653208	-0.0008743112
49	0xbcd0ac98	-0.025472924
50	0x3c25b710	0.010114446
51	0xbb3cc53c	-0.0028804084
52	0x3a96e570	0.001151247
53	0xbcead3ab	-0.028665384
54	0xbbce5f5d	-0.0062979893
55	0x3a80b2cc	0.0009818911
56	0x3bf0c9f6	0.0073482944
57	0x3d5d4494	0.05402048
58	0xbba330b1	-0.0049801697
59	0x3b2ce740	0.0026382953
60	0xbb9e0e49	-0.0048234803
61	0xbd03e6ff	-0.032202717
62	0x3cbf81df	0.023377357
63	0x3cdaea55	0.026723066
64	0xbb942364	-0.0045208205
65	0xbd09c8e8	-0.033638865
66	0xbc617290	-0.013760224
67	0xbc52930b	-0.012852441
68	0x3bf779c9	0.0075523597
69	0x3d866985	0.06563095
70	0xbc65569c	-0.0139977
71	0xbc749738	-0.0149286315
72	0xbbbf9bfb	-0.0058474517
73	0xbcf3ecbd	-0.029775972
74	0xbb43d7b9	-0.002988322
75	0xbb862337	-0.0040935534
76	0xbb9d7b2f	-0.0048059444
77	0xbd0b14fc	-0.03395556
78	0xbbd9cbad	-0.0066465945
79	0xbc1ca4df	-0.009560793
80	0x3b9ed25c	0.004846854
81	0x3d81069e	0.0630009
82	0x3c6dbfe1	0.0145110795
83	0x3bd36044	0.0064506847
84	0x3b0ced04	0.0021503577
85	0x3d148591	0.03626019
86	0xbaef0a18	-0.0018237261
87	0xbb16e019	-0.0023021756
88	0x3b1424dc	0.0022604978
89	0x3d20bb54	0.03924115
90	0x3a63d360	0.000869086
91	0x3adaf00e	0.0016703622
92	0xbc51e937	-0.01281195
93	0xbd9a9683	-0.07548239
94	0x3acb3c21	0.0015505591
95	0x3ad927f7	0.0016567697
96	0xbbb6dbae	-0.005580387
97	0xbd087a41	-0.033319715
98	0xbcdf0769	-0.027225213
99	0xbce14fa8	-0.027503803
100	0xbbcaa11d	-0.006183757
101	0xbd0fa2a7	-0.035067227
102	0x3d06bb55	0.032893497
103	0x3d104d83	0.03523017
104	0x3c305da6	0.010764515
105	0x3d8b8a19	0.068134494
106	0xbbb79385	-0.0056023025
107	0xbbb429f9	-0.0054981676
108	0xba5761e6	-0.0008216187
109	0xbcfbd2df	-0.0307402
110	0x3c88d792	0.016704354
111	0xbb46eb79	-0.0030352755
112	0xba9a96ee	-0.0011794248
113	0xbd04fd09	-0.032467876
114	0x3bcfe30e	0.0063442057
115	0xbc1299ed	-0.008947832
116	0x3c68f045	0.014217441
117	0x3d80de22	0.062923685
118	0xbacdc66b	-0.0015699392
119	0xbc36c218	-0.011154674
120	0xbc3896e7	-0.011266447
121	0xbcfadc30	-0.030622572
122	0x3a9611e6	0.0011449426
123	0x3b7296b9	0.0037016107
124	0xbc382a93	-0.011240619
125	0xbd0ea1cc	-0.03482227
126	0xbc33185b	-0.0109311
127	0xbad3edde	-0.0016168912
128	0xbb5dfd91	-0.0033873061
129	0x3d8622e1	0.065496214
130	0xbafbe66e	-0.0019218454
131	0xbbd9ca0b	-0.0066464
132	0xbb96b454	-0.0045991335
133	0xbd16534b	-0.036700528
134	0xbcde7251	-0.02715412
135	0xbcf8e176	-0.030380946
136	0xbb92a1e8	-0.004474867
137	0xbd20327a	-0.03911064
138	0x3c625f32	0.013816642
139	0x3c482abf	0.012217223
140	0x3c1ee5af	0.0096983155
141	0x3d9b1265	0.07571868
142	0x3c81ed2c	0.015860163
143	0x3c9aeabc	0.018910758
144	0xbbfe1f8f	-0.007755227
145	0xbd07da79	-0.033167336
146	0x3c009fe9	0.007850626
147	0x3bac7605	0.0052630925
148	0xbbf1b0f6	-0.0073758317
149	0xbd1c284c	-0.038124368
150	0xbb6f766c	-0.003653909
151	0xba952812	-0.001137974
152	0x3c0691ee	0.008213503
153	0x3d93b5b4	0.072123915
154	0xbbcc0057	-0.0062256265
155	0xbb3c0524	-0.0028689587
156	0xb8eb2337	-0.000112122325
157	0x3d0273cd	0.031848717
158	0x3ca5bfca	0.020233054
159	0x3ca618d8	0.020275518
160	0xba147596	-0.00056632736
161	0x3d15002e	0.036377124
162	0xbc57e3e1	-0.013176889
163	0xbc8167a0	-0.015796483
164	0xbc8aa2c7	-0.016923321
165	0xbd8bdef1	-0.06829632
166	0xbb9c886b	-0.0047770045
167	0xbb9e53fb	-0.0048317886
168	0x3ced432d	0.028962696
169	0x3ca42a90	0.020039827
170	0x3c959a3b	0.01826202
171	0x3c4fab7d	0.012675163
172	0x3cec7bf8	0.028867707
173	0x3caa64f1	0.020800086
174	0xbc1de6cb	-0.009637545
175	0xbb8b39cd	-0.0042488337
176	0x3cce42e6	0.025178384
177	0xbd27250b	-0.04080681
178	0xbc16f03b	-0.009212549
179	0xbbd4fd4c	-0.006499922
180	0xbc5435c6	-0.012952274
181	0xbcead6fd	-0.028666968
182	0xbb5a1082	-0.0033274
183	0x3c2a5e2b	0.010398428
184	0xbc535245	-0.012898033
185	0xbd061949	-0.032738958
186	0xbc8863c6	-0.016649138
187	0x3996b54d	0.0002874531
188	0xbbba2c93	-0.005681583
189	0x3d7c13c7	0.0615423
190	0xbca3b237	-0.01998244
191	0xbbba87fd	-0.0056924806
192	0xba95f90b	-0.0011442018
193	0xbd060668	-0.032720953
194	0xbc719d30	-0.014746949
195	0xbc578f90	-0.013156787
196	0x39d11ab8	0.00039883493
197	0xbd169410	-0.036762297
198	0x3c7f6f7a	0.015590543
199	0x3c47baf2	0.012190567
200	0x3c26fe02	0.010192396
201	0x3d8dc0bb	0.06921526
202	0x3b764c7c	0.003758221
203	0x3ade50eb	0.0016961371
204	0xbb55764a	-0.0032571726
205	0xbc85ef25	-0.016349385
206	0xb894a9a1	-7.088786e-05
207	0x3c106157	0.00881227
208	0xbb061b53	-0.0020463064
209	0xbc9d8b84	-0.019231565
210	0xbb65096e	-0.0034948247
211	0x3be31fee	0.0069312965
212	0x3b0870df	0.002081923
213	0x3d12cc86	0.03583958
214	0xb8beeba9	-9.103801e-05
215	0x3bcf41ca	0.0063249813
216	0xbb71343d	-0.0036804818
217	0xbcfed9a1	-0.031109633
218	0xbc4b20be	-0.012397943
219	0xbc878de0	-0.016547143
220	0xbb463351	-0.003024299
221	0xbd13a0f7	-0.03604218
222	0x3b989030	0.0046558604
223	0x3ae394a8	0.0017363029
224	0x3c294d6a	0.010333398
225	0x3d888cdb	0.06667491
226	0x3c39d646	0.011342591
227	0x3c26f40c	0.010190021
228	0xbdc23bf5	-0.09484092
229	0xbc5666f1	-0.013086067
230	0x3c84aee1	0.01619667
231	0x3a7f6c1e	0.0009743589
232	0xbdc2cbd6	-0.09511535
233	0xbc6f5d18	-0.014609598
234	0x3be7cb8e	0.007073826
235	0xb9828c7f	-0.0002490021
236	0xbd99b3ba	-0.07504983
237	0x3ce2cecb	0.027686497
238	0x3b3f0956	0.0029149852
239	0xbb304214	-0.0026894854
240	0x3b328978	0.0027242582
241	0xbcfb4d53	-0.03067652
242	0x3b9ce4e8	0.00478803
243	0x3c87bd21	0.016569676
244	0x3a8edeb2	0.0010900109
245	0xbcd57ae0	-0.026059568
246	0xbc5cb050	-0.013469771
247	0x3be93224	0.007116573
248	0x3c2eb4c0	0.010663211
249	0x3d675c82	0.056484707
250	0xbc88db30	-0.01670608
251	0x3b01830e	0.0019761953
252	0xbc04a106	-0.008095032
253	0xbcefda73	-0.02927897
254	0xbb855072	-0.0040684277
255	0x3b672bc4	0.003527389

node_encoder.0.bias f4 [32]
0	0xbc59e9f1	-0.013300405
1	0xbca8cacb	-0.020604512
2	0x3d1a6d4e	0.037701897
3	0xbb0126f1	-0.0019707049
4	0xbc9be2f0	-0.01902911
5	0x3c0252db	0.007954325
6	0xbb216e87	-0.002463253
7	0xba9ffc9a	-0.0012206018
8	0x3c9ab2b3	0.018884039
9	0xbd135832	-0.03597278
10	0xbcc30801	-0.023807527
11	0x3b72a376	0.00370237
12	0xbc4202e8	-0.011841513
13	0x3c86022c	0.016358458
14	0x3b784ec5	0.0037888747
15	0x388b4647	6.641127e-05
16	0xbb8fe453	-0.004391232
17	0xbb0d91f6	-0.0021601892
18	0x3aee6942	0.0018189328
19	0x3c00876c	0.007844787
20	0xbd1945a2	-0.037419923
21	0xbc1f48ee	-0.009721978
22	0x3936914d	0.00017411001
23	0x3880a769	6.134698e-05
24	0xbcd7499e	-0.02628022
25	0xbb816604	-0.003948929
26	0x39a70527	0.0003185656
27	0xbcdfa67a	-0.027301062
28	0xba2674b2	-0.00063497864
29	0xbb175ba4	-0.0023095394
30	0xbbd9046b	-0.006622841
31	0x3b1c4ea2	0.002385058

node_encoder.3.weight f4 [32, 32]
0	0x3c067631	0.00820689
1	0xbcaedb48	-0.021344796
2	0x3ba3fde9	0.0050046337
3	0x3bdef3ed	0.0068039806
4	0xbcba30a4	-0.022728272
5	0xbba79653	-0.0051143556
6	0x3cb6451e	0.022249755
7	0xbc9917b4	-0.01868806
8	0xbc7dced7	-0.015491209
9	0xbbaaefa1	-0.0052165543
10	0xbc1fecc3	-0.009761038
11	0xbc066533	-0.008202839
12	0xbc2d2558	-0.0105679855
13	0xbd1d3984	-0.03838493
14	0x3bb3ff9d	0.005493118
15	0xbc734f9a	-0.014850521
16	0xbad63352	-0.0016342199
17	0x3c792d1d	0.01520851
18	0xbc7f36e7	-0.015577055
19	0xbc225e9c	-0.009910252
20	0x3d208d86	0.039197467
21	0x3b88c8c5	0.004174324
22	0xb9fc6a8c	-0.0004814457
23	0xbccd7646	-0.025080811
24	0xbc550359	-0.013001286
25	0xbc75a05a	-0.014991844
26	0xba1b9b98	-0.0005935966
27	0xbb8a24e1	-0.004215822
28	0x3ba545d2	0.0050437236
29	0x3c2dc8fc	0.010607
30	0xbc754f4f	-0.014972522
31	0x3c81e791	0.01585749
32	0xbb413495	-0.0029480804
33	0xbcca088e	-0.024662282
34	0x3ba35946	0.0049850075
35	0x3c91e4ce	0.017809298
36	0xba5b21a7	-0.00083592016
37	0xbcbea193	-0.023270404
38	0xbc042df7	-0.0080675995
39	0xbb895eff	-0.0041922326
40	0x3c99cbe2	0.018773977
41	0x3bde7bc1	0.006789655
42	0x3bb6f200	0.005583048
43	0x3b04a9ba	0.0020242766
44	0xba309c10	-0.00067371223
45	0xbcf6b92e	-0.030117597
46	0x3c171ea2	0.009223612
47	0xbce0537f	-0.027383564
48	0x3c9d7bc3	0.019224053
49	0x3bbc8611	0.0057532866
50	0xbcd2d53e	-0.025736447
51	0xbc17469f	-0.009233146
52	0x39ef689d	0.00045663575
53	0xbaad18a9	-0.0013206202
54	0x3ae7f684	0.0017697369
55	0xbd74ed72	-0.059796758
56	0x3c14aeef	0.009074911
57	0x3c09870e	0.008394016
58	0xbaa9aa2f	-0.0012944395
59	0xbc9f822b	-0.019471249
60	0x3c2fe106	0.010734802
61	0x3c2f98ee	0.010717614
62	0x3d4fc78c	0.050727412
63	0xbc45c86a	-0.012071708
64	0xbc85f018	-0.016349837
65	0xbbe3e0c4	-0.0069542844
66	0xbcb1ad93	-0.021689212
67	0xb947aba3	-0.00019042059
68	0xba0b6c1c	-0.0005318539
69	0x3bf33c55	0.0074229636
70	0xba0d8c12	-0.0005399595
71	0xbbb1ec30	-0.005429767
72	0x3c2847ff	0.010271071
73	0xbb098b8f	-0.0020987724
74	0x3cff0879	0.03113197
75	0x3a51aa7f	0.0007998123
76	0x3b86fd11	0.0041195233
77	0x3c4dcb34	0.012560654
78	0xbb374bf1	-0.0027968849
79	0xbbbdf5b4	-0.0057971124
80	0xbb0adc38	-0.002118839
81	0x3c012f34	0.007884789
82	0x390bcef5	0.0001333317
83	0xbbb8c888	-0.0056391396
84	0x3a322dde	0.0006796996
85	0xbb1f6f0a	-0.002432766
86	0xba1e3786	-0.00060354953
87	0xbab4685c	-0.0013764012
88	0x3bbce08b	0.0057640723
89	0xbb0f9ca2	-0.0021913429
90	0xbc4ed334	-0.012623597
91	0xbc822a1f	-0.015889226
92	0x3b8466d4	0.0040405784
93	0x3c99ce30	0.018775076
94	0xbc4c5ba5	-0.012473022
95	0x3b283cac	0.002567093
96	0x3d4d2612	0.050085135
97	0xbd3e1970	-0.046410978
98	0xbcab2934	-0.02089367
99	0xbcd24a6a	-0.025670249
100	0x3b992fa7	0.00467487
101	0xbd041b2c	-0.032252476
102	0x3c53b6d4	0.012922008
103	0x3d32184d	0.043480206
104	0xbd7d117a	-0.061784245
105	0x3ba732a4	0.0051024724
106	0x3d543c8f	0.051815566
107	0xbd082b09	-0.033244167
108	0xbbbad606	-0.005701783
109	0xbd11cc2f	-0.035595115
110	0x3b4b73ac	0.0031044288
111	0x3ba7bbb7	0.005118813
112	0xbb83aa52	-0.0040181065
113	0xbc5455a4	-0.012959871
114	0xbcdc2bf9	-0.026876437
115	0x3ce60a99	0.028081225
116	0xb8473929	-4.749853e-05
117	0xbcde84a1	-0.027162852
118	0xbc2ad8a3	-0.010427627
119	0xba353128	-0.0006911927
120	0x3d259429	0.0404245
121	0xba3194f8	-0.0006774212
122	0xbbf7a835	-0.0075578936
123	0xbd4f8aaa	-0.05066935
124	0x3a645722	0.00087104936
125	0xbd3a4de2	-0.04548443
126	0x3e1c8936	0.15286717
127	0xbcde3656	-0.027125519
128	0xbbd424c0	-0.0064741075
129	0x3d5d27a4	0.053992882
130	0xbb2e80b3	-0.0026627004
131	0xbb7519c9	-0.0037399402
132	0x3bc44e68	0.005990792
133	0xba7d0bb9	-0.0009652931
134	0xbb814e9f	-0.00394614
135	0xbb441c95	-0.0029924263
136	0x3cb57345	0.022149691
137	0xbbd75b73	-0.006572181
138	0xbcca8938	-0.024723634
139	0xbbb74287	-0.0055926475
140	0x3ab3dc33	0.0013722241
141	0xbc510334	-0.012757111
142	0x39cd16bf	0.00039117594
143	0xbab52e74	-0.0013823048
144	0x3b969fc3	0.004596682
145	0xbb7ae5e9	-0.003828401
146	0xbbd2b211	-0.0064299186
147	0xbd9f998a	-0.07792957
148	0xbb930fa9	-0.004487951
149	0xbd207bac	-0.039180443
150	0xba133f34	-0.0005617023
151	0xbd0269a2	-0.03183902
152	0x3d15795c	0.03649269
153	0xbd6c965d	-0.057760585
154	0xbca3563e	-0.019938584
155	0x3b17ffc4	0.002319322
156	0x3a39ce0a	0.0007087892
157	0x3bd9335f	0.0066284384
158	0x3d526688	0.051367313
159	0xbc2d469d	-0.010575918
160	0x3c1c48b1	0.009538815
161	0x3c170943	0.009218517
162	0xbb0d2a59	-0.0021540134
163	0x3b52ec1d	0.0032184192
164	0xbc062dad	-0.008189601
165	0xbc648d47	-0.013949699
166	0xbac98222	-0.0015373866
167	0x3e541749	0.20712008
168	0xbd52aa92	-0.0514322
169	0xbcbba985	-0.022907982
170	0xba7eba27	-0.000971707
171	0xbd82b127	-0.063814454
172	0xb7e74308	-2.756856e-05
173	0x3d6dab99	0.058024976
174	0x3c9c5588	0.019083753
175	0x3be12954	0.006871382
176	0xbcd65710	-0.026164562
177	0x3b015b53	0.0019738271
178	0xbd1636fb	-0.036673527
179	0x3bf897bf	0.007586449
180	0xbcd7bccd	-0.026335144
181	0xba75a8ea	-0.00093711785
182	0x3b895c25	0.0041918927
183	0x3c0e2a87	0.0086771315
184	0x3b179273	0.0023128062
185	0x3c0e093f	0.008669197
186	0x39917ec0	0.0002775099
187	0xb9891fbb	-0.00026154317
188	0xbb12547d	-0.002232819
189	0xbd0a88d2	-0.03382189
190	0x3db008ea	0.0859545
191	0xbc37544c	-0.011189532
192	0x390676e0	0.0001282352
193	0x39db254b	0.0004179872
194	0xbb298121	-0.002586432
195	0xbb9be70a	-0.0047577666
196	0x3b89fc27	0.004210967
197	0x3c92729c	0.017876916
198	0x3a60f6ea	0.0008581715
199	0xbe524efc	-0.20537943
200	0x3cce7341	0.025201442
201	0xbaefb519	-0.0018288224
202	0xbc1cda82	-0.009573581
203	0x3d1656bc	0.03670381
204	0x3a3fc061	0.00073147385
205	0xbd76d10a	-0.06025795
206	0xbc48bcdf	-0.012252062
207	0xba0017bc	-0.0004886349
208	0x3c996ee5	0.018729636
209	0xbb1501ed	-0.0022736744
210	0x3d22833a	0.03967593
211	0xba21b75e	-0.00061689864
212	0xbb4f57ff	-0.0031638143
213	0xbb690cac	-0.0035560532
214	0xbaf967b2	-0.0019028096
215	0xbc4f722d	-0.012661499
216	0x3a7ff70d	0.00097642915
217	0xbb26f2e4	-0.0025474364
218	0xba720daa	-0.00092336035
219	0x3bbc75ec	0.005751362
220	0xbbd55800	-0.0065107346
221	0x3d958947	0.07301574
222	0xbdbae031	-0.09124792
223	0x3a2adbb5	0.0006517724
224	0x3d9a5752	0.07536186
225	0xbc131112	-0.008976238
226	0x3d5a2274	0.053255513
227	0xbc274dc9	-0.0102114165
228	0x3c7d23bd	0.015450415
229	0xbbe4afa1	-0.0069789444
230	0xb96d1df2	-0.00022613237
231	0x3bbf96da	0.0058468403
232	0xbc07f809	-0.008298882
233	0x3c91ad97	0.01778297
234	0x3d6e7c35	0.05822392
235	0xbc8ea13e	-0.01741087
236	0x3bf036ae	0.007330737
237	0x3c34cdfd	0.01103544
238	0xbd572b07	-0.05253127
239	0xbc5561b9	-0.013023787
240	0xbc8c23b7	-0.017106874
241	0xbbbb761f	-0.0057208682
242	0xbc378ed1	-0.011203484
243	0x3d2b262f	0.04178446
244	0x3cfb7113	0.030693566
245	0x3b4ce475	0.00312641
246	0xbb92b197	-0.0044767368
247	0xbb2fb8ab	-0.0026812952
248	0xbb425083	-0.002965004
249	0xbbdccb4a	-0.006738101
250	0xbc4b4acf	-0.0124079725
251	0x3d4285a2	0.047490723
252	0xbbdca9dc	-0.006734116
253	0xbcbb0a87	-0.022832168
254	0x3d1df27f	0.03856134
255	0xba591984	-0.0008281695

node_encoder.3.bias f4 [32]
0	0x3c2619e2	0.010138007
1	0x3b484f73	0.0030564934
2	0xbb9cd1e4	-0.004785763
3	0x3d1ba4a1	0.0379988
4	0x3a792953	0.0009504754
5	0x3bc29066	0.005937624
6	0xbb42f552	-0.0029748273
7	0x3cd73f8a	0.026275415
8	0x3c67dbad	0.014151496
9	0x3ca5c84f	0.020237116
10	0x3aabb3a2	0.0013099799
11	0x3b4dc157	0.0031395757
12	0x3c238dcc	0.0099825375
13	0x3c83e1b7	0.01609884
14	0xbb7dfc2c	-0.0038755042
15	0xbad2294d	-0.0016034037
16	0xbbf0cd03	-0.007348658
17	0x3d26f66f	0.04076236
18	0xbbcf4ff2	-0.006326669
19	0xbbbd5f66	-0.0057791946
20	0xbb8c7d9c	-0.0042874347
21	0xbbc45e2c	-0.0059926715
22	0xbc0d26cf	-0.00861521
23	0xbaf2e274	-0.0018530623
24	0x3a52ae1f	0.00080368103
25	0xbc0bed21	-0.008540423
26	0x3c8c6091	0.01713589
27	0xbb35e0b1	-0.0027752335
28	0x3a2ec46b	0.0006666842
29	0x3b4f7d91	0.0031660537
30	0xbb925bc0	-0.004466504
31	0x3aff9a48	0.0019500935

node_encoder.6.weight f4 [32, 32]
0	0xbc493e31	-0.012282894
1	0x3b60708b	0.0034246768
2	0xbb32c7f6	-0.002727983
3	0xbda25daf	-0.07928025
4	0xbc870104	-0.016479976
5	0xbb3ca254	-0.0028783279
6	0x3cd1e119	0.02562003
7	0x3ba0cf58	0.00490753
8	0x3d560421	0.05225003
9	0xbc0f4352	-0.008744078
10	0xbbf68732	-0.0075234408
11	0x3b180f4e	0.0023202482
12	0xbaec72ee	-0.0018039623
13	0x3b892d4f	0.0041863094
14	0x3b5c149c	0.003358162
15	0xbb9adf6b	-0.0047263405
16	0x3a761d34	0.0009388507
17	0xbb2d1251	-0.0026408623
18	0x3b42e15f	0.0029736382
19	0x3d831fa8	0.06402522
20	0xbca4dce7	-0.020124866
21	0xbbbc83f0	-0.005753033
22	0x3bcaf92a	0.0061942535
23	0x37558d51	1.2728692e-05
24	0x3bab623b	0.005230216
25	0x3c70885f	0.014680951
26	0x3c10d2d9	0.0088393325
27	0x3b98d31f	0.0046638395
28	0xbba15ebf	-0.0049246247
29	0x3bae5c32	0.005321049
30	0xbbd32c71	-0.006444507
31	0x3be23c00	0.006904125
32	0x3c28fd6f	0.0103143295
33	0x399859c7	0.0002905859
34	0xbd07683c	-0.03305839
35	0x3d1e5ce1	0.038662795
36	0x3915b53a	0.0001427726
37	0x3c82e3b0	0.01597771
38	0x39ecdbee	0.00045177288
39	0xbc8e8fac	-0.017402492
40	0xbc87c906	-0.016575348
41	0xbc0d2952	-0.008615809
42	0x3d1bae72	0.03800816
43	0x3b9860c1	0.004650206
44	0xbd8ce3d6	-0.06879394
45	0x3c283a30	0.010267779
46	0x3c892629	0.016741829
47	0x3c656845	0.014001911
48	0xbc697826	-0.014249837
49	0x3d319b95	0.043361265
50	0x3c3b2c3a	0.011424119
51	0x3cb3813f	0.021912215
52	0xbba910db	-0.00515948
53	0x3ac6d67e	0.0015170125
54	0x3c19e4c0	0.009392917
55	0x3befd6f0	0.0073193237
56	0x3c3fa630	0.011697337
57	0x3c2965e7	0.010339237
58	0xbc865269	-0.016396718
59	0xbc5f0a9f	-0.013613372
60	0x3acb2f97	0.0015501854
61	0xbd4bca74	-0.04975362
62	0xbb1c119c	-0.0023814207
63	0x3c03ab22	0.008036407
64	0x3b0558d0	0.0020347126
65	0xbc4893ab	-0.012242238
66	0xbbc4432a	-0.005989452
67	0xbd4d58c7	-0.050133493
68	0xbe0f854b	-0.14015691
69	0x3c9707ad	0.018436277
70	0x3b1dadc7	0.0024059878
71	0xbc0d3fa9	-0.008621135
72	0x3994face	0.00028415624
73	0xbbf91688	-0.007601563
74	0x3bf4ff9f	0.0074767615
75	0x3c221285	0.009892111
76	0x3bd005a4	0.0063483287
77	0xbceac056	-0.028656166
78	0xbbe03590	-0.0068423226
79	0xbc130074	-0.008972276
80	0x3c11bcfa	0.008895153
81	0xbcc3711c	-0.023857646
82	0xbd8a2038	-0.067444265
83	0x3d8e3c4f	0.06945097
84	0xbc031715	-0.008001109
85	0xbc9c8c0f	-0.019109754
86	0xbd5739a7	-0.052545216
87	0xbdd21667	-0.10258179
88	0x3b5a7644	0.0033334652
89	0x3c236650	0.009973124
90	0x3ccaa9ae	0.024739113
91	0x3c511742	0.012761893
92	0xbdab1857	-0.08354252
93	0x3cca0194	0.024658956
94	0xbbda58d6	-0.006663422
95	0x3bf398ed	0.0074340017
96	0x3d997800	0.07493591
97	0x3a1d6f0d	0.00060056226
98	0x3c9ca9a1	0.019123854
99	0x3ddf25fb	0.10895916
100	0x3d058bb3	0.03260393
101	0xbc86d732	-0.016460035
102	0xbb60659a	-0.0034240247
103	0xbceb4926	-0.028721403
104	0x3c921d52	0.017836247
105	0x3cc5744e	0.02410331
106	0xbbdb4adc	-0.0066922735
107	0x3bdc298d	0.0067188204
108	0x3b73ccf2	0.0037201014
109	0xbd1881a8	-0.037233025
110	0x3c63a56a	0.013894418
111	0x3cc4c485	0.024019489
112	0xbce02364	-0.027360626
113	0xbd4e19f3	-0.050317716
114	0x3d8c7bcb	0.06859549
115	0xbdf73ef2	-0.12072553
116	0x3aeb259f	0.0017940289
117	0xba839efa	-0.0010041886
118	0x3c625790	0.013814822
119	0xbca9f9c4	-0.02074898
120	0xbcacf8ae	-0.021114673
121	0xbb89e0f3	-0.0042077242
122	0x3b90837b	0.004410205
123	0x3c338771	0.010957585
124	0x3d1b7d0d	0.037961055
125	0xbc50a1d5	-0.012733896
126	0x3b5ad7be	0.0033392753
127	0x3ac46814	0.0014984631
128	0xbbd17e22	-0.00639321
129	0x3bc921dd	0.00613807
130	0xbb8ee0e0	-0.0043603033
131	0xbd2d1e2b	-0.0422651
132	0x3af8d842	0.0018985348
133	0x3c5df619	0.013547444
134	0xbac74ef6	-0.0015206027
135	0xbc929ffa	-0.017898548
136	0x3c0c7e36	0.008575013
137	0xbd1ca445	-0.038242597
138	0x3b9d681a	0.0048036696
139	0xbb0e9377	-0.0021755376
140	0xbc0e2ed6	-0.008678159
141	0xbf0bcdd5	-0.5461095
142	0x3d10561d	0.035238374
143	0xbaa20b8a	-0.0012363058
144	0xbba4b18a	-0.005026047
145	0xbc4550ea	-0.012043217
146	0xbd0d5010	-0.03450018
147	0xbd54f447	-0.051990774
148	0x3c01bd66	0.007918691
149	0x3b3dd83a	0.0028967992
150	0xbdd8586f	-0.10563742
151	0xbdaadb50	-0.08342612
152	0xbc5435ef	-0.012952312
153	0xba73a6ab	-0.000929455
154	0xbc8514cd	-0.01624527
155	0x3c21d563	0.0098775355
156	0x3c7d62f9	0.015465491
157	0x3b9f1646	0.00485495
158	0x3b0389ff	0.0020071266
159	0x3bc81394	0.0061058495
160	0x3d128f53	0.035781216
161	0x3c64d5c4	0.013966981
162	0x3c3f0268	0.011658289
163	0xbc4cd099	-0.012500905
164	0x3b216930	0.0024629347
165	0xbd987eeb	-0.07446083
166	0x3d353b78	0.044246167
167	0x3d8e9b45	0.06963209
168	0xbc92fe7d	-0.017943615
169	0x3ce1d809	0.027568834
170	0x3c6cfe76	0.014464965
171	0x3bd38eaa	0.006456216
172	0x3c8bf4bc	0.017084472
173	0xbc0d2fa6	-0.008617317
174	0x3d9d2f34	0.07675019
175	0x3c51bdc4	0.012801591
176	0xbcc5ed12	-0.024160895
177	0xbc2f0d34	-0.0106843
178	0x3c901a6a	0.01759072
179	0xbbb1bd1c	-0.005424155
180	0xbc387404	-0.011258129
181	0xbc20f54e	-0.00982411
182	0xbcd02376	-0.025407534
183	0xbd24f66b	-0.040274065
184	0x3b9fff62	0.004882739
185	0x3d0d4b86	0.034495853
186	0xbd827e13	-0.06371703
187	0x3c787d20	0.015166551
188	0x3c3215a3	0.010869416
189	0xbb6c4e66	-0.0036057471
190	0xbc204f75	-0.009784569
191	0x3be10d96	0.0068680746
192	0x3b677d44	0.0035322467
193	0x3ae6e39c	0.001761544
194	0x3ad892c6	0.0016523234
195	0xbcfea629	-0.03108509
196	0xbbb44a62	-0.005502031
197	0x3cf78d80	0.03021884
198	0xbcfdbade	-0.030972894
199	0xbe662bf3	-0.22477703
200	0x3c90a948	0.017658845
201	0xbc3b860a	-0.011445532
202	0xbbce7d91	-0.00630159
203	0x3bae4485	0.0053182268
204	0xbbfd78fd	-0.00773537
205	0xbb257388	-0.0025245864
206	0xbccb005a	-0.024780441
207	0x3b47afee	0.0030469852
208	0x3be90c15	0.007112036
209	0xbcd29187	-0.025704158
210	0xbaab32de	-0.0013061424
211	0xbc3f2d4a	-0.011668513
212	0x3c776166	0.015098905
213	0x3b9cb034	0.0047817472
214	0x3d080a40	0.0332129
215	0x3c21bc28	0.00987152
216	0xbbdf08e0	-0.006806478
217	0xbc88f6b5	-0.016719202
218	0x3af5d81e	0.0018756425
219	0x3b83b5bc	0.004019467
220	0xb818fe0e	-3.647623e-05
221	0x3ba13239	0.004919317
222	0x3c221176	0.009891858
223	0x3ab9569f	0.0014140195
224	0xbcb3bf6b	-0.021941861
225	0x3cfb875e	0.030704197
226	0x3b4bf502	0.0031121378
227	0xbd5b12da	-0.053484775
228	0xbc89e0ad	-0.016830767
229	0x3c0f787f	0.008756756
230	0x3a1218bc	0.0005573144
231	0xbc004655	-0.007829268
232	0x3c58813c	0.013214406
233	0xbbee90bd	-0.0072804377
234	0x3bd2d646	0.006434235
235	0x3c042fa5	0.008068
236	0x3d22621e	0.039644353
237	0xbd0af441	-0.033924345
238	0x3c19e5bc	0.009393152
239	0x3c0730fb	0.008251424
240	0x3c3b4c6f	0.011431797
241	0xbd90cf1f	-0.07070755
242	0x3bc345ea	0.005959262
243	0xbc9c498a	-0.019078035
244	0xbbfde901	-0.0077487235
245	0xbb5661b8	-0.0032712054
246	0xbc48b972	-0.012251245
247	0x3a603df6	0.0008554155
248	0x3ab7ad4b	0.0014013437
249	0xbc51ca51	-0.012804584
250	0xbc8b9b7d	-0.017041916
251	0x3bb3e298	0.0054896586
252	0xbbc08c69	-0.005876113
253	0xbc9c77e8	-0.019100145
254	0xbb920b2b	-0.0044568977
255	0x3b9e4a70	0.004830651

node_encoder.6.bias f4 [32]
0	0xbc128515	-0.008942862
1	0xbb953ee8	-0.004554618
2	0x3be43984	0.006964864
3	0x3b086abe	0.0020815576
4	0x3b142748	0.0022606421
5	0xb8b06e05	-8.412827e-05
6	0x3b676af4	0.0035311552
7	0x3b0ca30b	0.0021459486
8	0x3b8f8b4b	0.0043806187
9	0x3c39af93	0.011333364
10	0x3c27ba77	0.010237328
11	0xba30cdb5	-0.000674452
12	0x3b7f8e9f	0.003899492
13	0xba747f10	-0.0009326795
14	0x3b3ff6ac	0.0029291315
15	0xbb08994c	-0.0020843325
16	0x3b8deb09	0.004330997
17	0xb8f64d0a	-0.00011744544
18	0xba6b01da	-0.00089648145
19	0x39ee01b8	0.00045396178
20	0xbc624ae3	-0.0138118
21	0xbb809ea4	-0.0039251614
22	0xbac4ba52	-0.0015009141
23	0x3bdb53af	0.0066933255
24	0x3ab5ff8a	0.0013885361
25	0x3bd94090	0.006630011
26	0x3c9f53f1	0.019449206
27	0x3b814286	0.003944698
28	0xba564c8a	-0.00081748574
29	0x3c7f7020	0.0155906975
30	0x3aac08c1	0.0013125167
31	0x3c1ad0ed	0.009449226

edge_encoder.0.weight f4 [32, 6]
0	0x3b66cbe9	0.0035216755
1	0x3c3c68f8	0.011499636
2	0xba1b90d6	-0.0005934363
3	0xbddb0ae4	-0.106954366
4	0xb7a21d2b	-1.9325487e-05
5	0x3ad741f8	0.0016422858
6	0xbc63910a	-0.0138895605
7	0x3d1ec62f	0.03876322
8	0xbc5c1b19	-0.013434195
9	0xbcd27feb	-0.025695762
10	0x3ae13747	0.0017182612
11	0x3c8706b9	0.016482698
12	0xbdd9a5fa	-0.10627361
13	0xbefa139e	-0.48843092
14	0xbb135adf	-0.0022484583
15	0x39de4d71	0.00042400838
16	0x3c3109c6	0.010805553
17	0x3c830f80	0.015998602
18	0xbdab7b30	-0.083731055
19	0x3e56f95e	0.20993564
20	0xbabc9211	-0.0014386793
21	0x3a1522a2	0.00056890596
22	0x3d7bb3e4	0.061450854
23	0xbd95c7cc	-0.07313499
24	0xbd806164	-0.06268576
25	0x3a7e01a0	0.0009689573
26	0x3a938022	0.0011253397
27	0x3b09f60f	0.0021051203
28	0xba9b34d9	-0.0011841311
29	0x3d2d2d2c	0.042279407
30	0xbeaa7e1d	-0.33299342
31	0x3ef78c73	0.48349342
32	0xb9e79ec1	-0.00044178034
33	0x3b17bfda	0.0023155124
34	0xbbb19c37	-0.0054202336
35	0xbb71858f	-0.0036853289
36	0x3c84f4db	0.016230037
37	0xbb510336	-0.0031892783
38	0xbd3a60d0	-0.045502484
39	0xbb5443db	-0.0032389078
40	0x3b6ed91b	0.0036445323
41	0xbd9f5239	-0.077793546
42	0xbc954119	-0.018219518
43	0xbf220d0d	-0.63301164
44	0xba249c75	-0.00062794174
45	0x388b385e	6.638536e-05
46	0xbd5e0c2e	-0.054210834
47	0xbe01c53e	-0.12672898
48	0xbd59e78e	-0.053199343
49	0xbe34146a	-0.17585912
50	0xbbe1c454	-0.006889859
51	0xbb595cdb	-0.0033166918
52	0xbb6a9171	-0.0035792256
53	0xbd24b695	-0.040213186
54	0x3bd20cea	0.006410231
55	0xbcf0e013	-0.029403722
56	0xba9d12d9	-0.0011983766
57	0x3a60a416	0.00085693726
58	0xbd4f699b	-0.050637823
59	0x3dcc1e34	0.09966698
60	0xbe53ccc2	-0.20683578
61	0x3ce23c62	0.027616683
62	0xba3820f1	-0.00070239516
63	0x3d86aa64	0.06575468
64	0x38838090	6.2705134e-05
65	0x39f7a412	0.00047233753
66	0xbdb830ed	-0.08993707
67	0x3e2853e5	0.16438253
68	0xbc8ba224	-0.017045088
69	0x3c2c3080	0.01050961
70	0xba56f5e8	-0.0008200095
71	0x3c279d39	0.010230356
72	0x3c8e783b	0.017391315
73	0x3cc2cd97	0.023779674
74	0xbaaca773	-0.0013172462
75	0x3df9dfc3	0.12200882
76	0xb866ba03	-5.500951e-05
77	0xbb0c5f68	-0.0021419171
78	0xbe674d65	-0.22588117
79	0xbc2bc0d8	-0.010482989
80	0x3b5f7ab8	0.0034100246
81	0xbd92f163	-0.07174947
82	0xb9a9f02a	-0.00032413128
83	0x3bfda27d	0.0077403174
84	0x3dc630ed	0.096773006
85	0x3dc0a849	0.09407098
86	0xbb8e9c52	-0.004352131
87	0xbd1bd504	-0.038044944
88	0xbad9d9bc	-0.0016620676
89	0x374acbbf	1.2087577e-05
90	0xbb3706b9	-0.002792759
91	0x3e7fb805	0.24972542
92	0xbaf4e940	-0.0018685237
93	0x39b8c62d	0.00035242867
94	0x3d397e6b	0.045286577
95	0xbda70bc6	-0.081565425
96	0xbc592cf5	-0.0132553475
97	0x3c7e9a04	0.01553965
98	0xba0faade	-0.0005480478
99	0xbe37d970	-0.1795404
100	0x387558d5	5.8495283e-05
101	0xbb66e5f1	-0.003523227
102	0x3e69167e	0.22762486
103	0x3d392175	0.045197923
104	0xbab39327	-0.0013700471
105	0xbb948a78	-0.0045331083
106	0xb9a8be30	-0.00032185158
107	0x3bfdc4eb	0.0077444217
108	0xbcf6e6dc	-0.03013938
109	0x3e09a903	0.13443379
110	0x3a1251b6	0.0005581634
111	0xbb7c1e26	-0.0038470118
112	0x3c625820	0.013814956
113	0xbd28a79d	-0.041175473
114	0x3d8a9c79	0.06768126
115	0x3cc4956d	0.023997033
116	0xbc1adfb4	-0.009452749
117	0x3c9f2116	0.019424956
118	0xbb38aa99	-0.0028177856
119	0x3d44aa94	0.04801424
120	0x3dc37059	0.09542913
121	0x3dd09494	0.10184589
122	0xbb61fe2a	-0.003448377
123	0x3d2c98d3	0.042137932
124	0xbad1eee8	-0.0016016634
125	0xbc2f25e3	-0.010690185
126	0xbe1279b9	-0.14304246
127	0x3daa9059	0.083283134
128	0xbc609a80	-0.013708711
129	0x3c2e615e	0.010643331
130	0xbaceef7d	-0.0015787926
131	0x3e04a7a4	0.12954575
132	0xbcefacab	-0.02925714
133	0x3f472624	0.7779257
134	0xba2f5bf0	-0.000668942
135	0x3980faff	0.0002460107
136	0x3db0bce9	0.08629782
137	0x3d342bbf	0.043987032
138	0xbd9ec917	-0.077531986
139	0x3b8b1fb1	0.0042457213
140	0x3cdb562c	0.026774488
141	0xbc3a69c7	-0.011377758
142	0xbaebd58a	-0.0017992717
143	0x3d32775e	0.04357087
144	0xbda5ca5d	-0.08095238
145	0xbe1b72e5	-0.15180548
146	0x3b10d8dc	0.0022101915
147	0x3cd40045	0.025879035
148	0x39ecb144	0.000451455
149	0xbc690573	-0.014222491
150	0xbd1ac235	-0.037782867
151	0xbf1c887e	-0.6114577
152	0xba7042d5	-0.0009165232
153	0x39a59214	0.0003158009
154	0xbd5b671e	-0.053565137
155	0x3d6ca080	0.057770252
156	0xbd7a961b	-0.061178308
157	0xbe385676	-0.18001732
158	0xb9b5960e	-0.0003463481
159	0x3a0b8aee	0.00053231313
160	0xbd564de0	-0.05232036
161	0x3d7f365c	0.0623077
162	0xbbe18841	-0.006882698
163	0xbc80b7ba	-0.015712608
164	0x3c9e84cd	0.019350434
165	0xbc096416	-0.008385679
166	0x3c2ee72b	0.010675232
167	0xbdc3690d	-0.09541521
168	0xbcff8c87	-0.031194938
169	0xbd0074c5	-0.03136136
170	0x3ca799fe	0.020459171
171	0xbb8cdf4d	-0.0042990805
172	0xb98eb327	-0.0002721783
173	0x3c9a24d0	0.018816382
174	0xbcdfaf50	-0.027305275
175	0x3c718678	0.0147415325
176	0x3d59755a	0.05309043
177	0xba164a9e	-0.0005733165
178	0x39542e59	0.00020235161
179	0xba58459f	-0.00082501204
180	0xba8b228e	-0.0010615156
181	0x3bbeacb9	0.00581893
182	0xb9c6acc0	-0.00037894212
183	0x3e221d66	0.15831527
184	0x3950da93	0.00019917851
185	0xbac368f8	-0.0014908602
186	0xbdfa6e3f	-0.12228059
187	0x3e625589	0.22102942
188	0xbc98df4b	-0.018661162
189	0x3c20b8bd	0.00980967
190	0xbb86a1d5	-0.0041086474
191	0xbc04dcc3	-0.008109274

edge_encoder.0.bias f4 [32]
0	0x39be1e7d	0.0003626234
1	0x3c04bbb5	0.0081013935
2	0xbb9bf79d	-0.0047597424
3	0xbc41a44f	-0.011818959
4	0x3c5307df	0.012880295
5	0x39ac0052	0.00032806635
6	0x3b252514	0.0025199102
7	0xbadb83c3	-0.0016747642
8	0xbc0391e4	-0.0080303885
9	0xbacf6fa7	-0.0015826122
10	0xbc02c8b5	-0.007982423
11	0xbc852f5a	-0.01625793
12	0x3b5ee25e	0.0034009437
13	0xbc0eb236	-0.008709481
14	0xb949dbb6	-0.00019250702
15	0x3a7bd058	0.0009605936
16	0xb9ac530e	-0.00032868277
17	0xbb3f97cb	-0.0029234763
18	0xbc69bce3	-0.0142662255
19	0xba724f20	-0.0009243358
20	0x3a12c821	0.00055992795
21	0xbc8d75d0	-0.017268091
22	0xbb85ec42	-0.004087002
23	0xbbd54d44	-0.006509455
24	0xbc62dd66	-0.013846731
25	0xbb63546a	-0.0034687766
26	0xbc3e4fef	-0.011615737
27	0xbaba202a	-0.001420026
28	0x3ca6ebe1	0.020376148
29	0xbb55d04b	-0.0032625373
30	0x3a14a961	0.00056709914
31	0xbc001b40	-0.007818997

edge_encoder.3.weight f4 [32, 32]
0	0x3afb0a52	0.0019152856
1	0xbc0f2ec9	-0.008739182
2	0xbb67b819	-0.0035357533
3	0x3c29bd17	0.010360024
4	0xbc01ddcf	-0.007926418
5	0x3d13d645	0.036093015
6	0x3c0ef205	0.008724694
7	0x3bb4f348	0.0055221654
8	0x37e4c5a9	2.727176e-05
9	0xbc6d9b1e	-0.014502315
10	0x3c5496f4	0.012975443
11	0xbe05992b	-0.1304671
12	0xbc07b983	-0.0082839755
13	0x3c040308	0.008057363
14	0xbc148f7c	-0.0090674125
15	0xbc440d5b	-0.011966075
16	0x3a9081b4	0.0011024983
17	0xbcfd3edf	-0.030913768
18	0xbb0f22ee	-0.0021840888
19	0x3b63dae1	0.0034767913
20	0xbc5fa4c7	-0.013650126
21	0x3bf18476	0.007370527
22	0xbb141220	-0.002259381
23	0x3cc5fcfe	0.024168488
24	0xbd5a87c1	-0.05335212
25	0xbc2fc421	-0.010727913
26	0x3c4bf95c	0.012449589
27	0x3bac21b1	0.0052530398
28	0xbc59a3fb	-0.013283725
29	0x3c84362b	0.01613911
30	0x3b4a5090	0.0030870773
31	0x3e07891e	0.132359
32	0xbc0d0391	-0.008606807
33	0xbc466267	-0.012108422
34	0xbca0f0fb	-0.019646158
35	0x3bd8c410	0.0066151693
36	0xbc78497a	-0.015154237
37	0x3c9ad7af	0.018901674
38	0xbb85f0b2	-0.004087531
39	0xbc289a73	-0.01029073
40	0xbbc50e59	-0.0060136733
41	0xbb8d73e3	-0.0043167933
42	0x3c03188f	0.008001461
43	0x3cbc91c7	0.02301873
44	0xbc1b5806	-0.009481436
45	0x3be31d42	0.006930978
46	0x3b390d69	0.0028236753
47	0x3add4832	0.0016882478
48	0x3c302884	0.010751847
49	0x3c813260	0.015771091
50	0x3d979bed	0.07402787
51	0x3b7091b8	0.003670795
52	0x3c12e271	0.008965121
53	0x3d187775	0.037223298
54	0xbb474640	-0.0030406862
55	0xb9c3c19b	-0.00037337546
56	0x3cdee4de	0.027208742
57	0x3cbdb816	0.023159068
58	0xbb8b370c	-0.0042485055
59	0xbc24c3e5	-0.0100564705
60	0xbc98844b	-0.01861777
61	0x3c26b571	0.010175095
62	0xbaf1347e	-0.0018402485
63	0xbc7e1dfc	-0.0155100785
64	0x3b285f24	0.0025691474
65	0x3ad32fab	0.0016112229
66	0xbdf89b99	-0.12139053
67	0x3d664dc5	0.05622651
68	0x3b02518f	0.0019885038
69	0xbde31f84	-0.110899955
70	0x3a6ba54a	0.00089891686
71	0x3e0cc0fd	0.13745494
72	0xbd1ccdc5	-0.038282175
73	0x3a51e538	0.00080068735
74	0x3b2a530f	0.0025989448
75	0xbb9bbced	-0.0047527463
76	0x3b30e38f	0.0026991104
77	0x3c139f9e	0.009010224
78	0x3a714e36	0.0009205075
79	0xbca7b1f2	-0.020470593
80	0x398260e9	0.00024867736
81	0xbc5e7f8b	-0.013580213
82	0xbd848abf	-0.06471776
83	0xbb0a6626	-0.0021118014
84	0xbb51741e	-0.003196008
85	0x3d4e2718	0.05033025
86	0xbae03cd3	-0.0017107971
87	0x3b1ca294	0.0023900615
88	0x3c29205e	0.010322658
89	0x3db26573	0.08710756
90	0xbe3f631e	-0.18690154
91	0x3a5c1da0	0.00083967485
92	0x3b4189b2	0.0029531536
93	0xbba42dfc	-0.0050103646
94	0xbb85402f	-0.004066489
95	0xbb722f9e	-0.0036954652
96	0xbbca7a80	-0.006179154
97	0xbc19a387	-0.009377367
98	0x3d528b47	0.051402356
99	0xbb438551	-0.0029834101
100	0xbba97905	-0.0051718974
101	0x3d61273c	0.054969057
102	0xbc7c9059	-0.015415275
103	0x3c355c81	0.011069418
104	0x3c7050e9	0.014667728
105	0x3c136f3e	0.00899869
106	0x3b65ede9	0.0035084432
107	0xbd4e664c	-0.050390527
108	0xbbd8ea6f	-0.0066197435
109	0x3ba7dfb3	0.0051231026
110	0x3a6f66da	0.00091324525
111	0xbb417ca9	-0.0029523766
112	0x3bfd148a	0.0077233957
113	0xbc28188b	-0.010259758
114	0x3cf16dec	0.02947136
115	0xbc92dda6	-0.017927956
116	0xbc2a0192	-0.010376351
117	0xbccdabe6	-0.025106382
118	0x3c858591	0.016299041
119	0x3c9dbe19	0.019255685
120	0x3b62999b	0.003457642
121	0xbc11eb1e	-0.008906154
122	0x3cb4887a	0.022037733
123	0xbb987bfc	-0.004653452
124	0xbb9b69d3	-0.00474284
125	0xbd31a3c3	-0.043369066
126	0x3bc9fcf6	0.0061641885
127	0x3d8acbbe	0.06777142
128	0x3cdb55a2	0.026774231
129	0x3bdbbc8d	0.0067058266
130	0xbce1bf50	-0.027557045
131	0x3c432fdc	0.011913266
132	0x3b51b61f	0.0031999422
133	0xbc678a6f	-0.014132126
134	0x3bdabe91	0.0066755493
135	0xbafe01f0	-0.001937924
136	0xbcb4df25	-0.02207906
137	0x3bae86ad	0.005326113
138	0x3de1b44f	0.11020719
139	0xbdb9fef0	-0.090818286
140	0xbcd42150	-0.02589479
141	0xbddb6b5b	-0.10713836
142	0x3c34e33a	0.011040503
143	0x3b7de35c	0.0038740253
144	0x3d0361c2	0.03207565
145	0x3a3b1525	0.00071366347
146	0x3b6b04bf	0.0035860983
147	0xbaebdb09	-0.0017994355
148	0xbb8cd87f	-0.0042982693
149	0x3c3795d1	0.011205153
150	0xb8cb9eac	-9.709349e-05
151	0xbbe58698	-0.00700457
152	0x3d3ca6d9	0.046057556
153	0x3c0abed2	0.008468347
154	0x3c1dfc49	0.009642669
155	0x3ac3e221	0.0014944711
156	0x3b8c4d2e	0.0042816615
157	0x3b88396d	0.0041572363
158	0xbd567eab	-0.052366894
159	0x3c223ca9	0.009902158
160	0x3b709c2c	0.003671418
161	0xbb0b9f9c	-0.0021304851
162	0xbc2e06ad	-0.010621709
163	0x3be9472f	0.0071190814
164	0x3b4e373f	0.0031466035
165	0xbcc38a2f	-0.023869602
166	0xbc24ce50	-0.010058954
167	0xbaec0fb9	-0.0018010057
168	0x3b0e7b3f	0.002174094
169	0x3b380593	0.0028079494
170	0x3e096684	0.13418013
171	0xbdfdd5c1	-0.12394286
172	0xbcb6f849	-0.022335188
173	0xbce86ab9	-0.028371202
174	0xbb595026	-0.0033159344
175	0xbb6d90e8	-0.00362497
176	0x3c5aeca1	0.013362081
177	0xbcf9cf94	-0.030494489
178	0x3cb31bb5	0.021863798
179	0xbc7beead	-0.015376729
180	0xbc1c1b8a	-0.00952805
181	0xbc3a5688	-0.01137317
182	0x3b3afdae	0.0028532553
183	0x3d0e8a04	0.03479959
184	0x3d1eed15	0.038800318
185	0x3b924324	0.00446357
186	0x3bc6e7e1	0.0060701226
187	0x3bdb3115	0.0066892006
188	0x3bd9842a	0.0066380696
189	0xbc7239c2	-0.014784278
190	0xbd37e6bd	-0.044897784
191	0x3cf53636	0.029933076
192	0x3c4f5bb6	0.012656143
193	0xbd731357	-0.059344616
194	0x3d40e91c	0.04709731
195	0x3d114171	0.0354628
196	0xbd6df4dc	-0.058094844
197	0x3df55e16	0.11980836
198	0xbd16ed2e	-0.036847286
199	0xbc0fd47c	-0.008778688
200	0x3d98b9c9	0.07457311
201	0xbc5f7ad6	-0.013640126
202	0x3d164808	0.036689788
203	0x3df1e79f	0.11811756
204	0xbacf302a	-0.0015807201
205	0x3d354fb2	0.044265456
206	0xbd2cfd48	-0.042233735
207	0xbcb8e9c9	-0.022572415
208	0x3ca4165b	0.020030191
209	0xbe0d0f20	-0.13775301
210	0xbda4bfed	-0.080444194
211	0xbce6a8d3	-0.028156674
212	0xbd349f98	-0.044097513
213	0x3b9d94f6	0.0048090173
214	0x3bce2230	0.0062906966
215	0x3d9b8217	0.07593172
216	0x3ddc7dbb	0.10766169
217	0x3cb43002	0.021995548
218	0x3c38eb68	0.011286594
219	0xbc1b2656	-0.009469589
220	0xbdb2e860	-0.08735728
221	0xbd0ebc41	-0.0348475
222	0x3bb5dfa0	0.00555034
223	0x3cf6ac8c	0.030111574
224	0x3b4eaf41	0.0031537565
225	0x3bd2bf60	0.006431505
226	0x3d30a88c	0.04312949
227	0x3e144660	0.14479971
228	0x3c05a460	0.008156866
229	0xbd89d05d	-0.06729195
230	0x3b9b5f97	0.00474162
231	0xbd8a39ba	-0.06749292
232	0xbcfac2d2	-0.030610476
233	0x3b005f0c	0.0019587902
234	0xbbfa91da	-0.0076467814
235	0xbb7a9635	-0.0038236503
236	0x3a83c54a	0.0010053304
237	0xbc20796f	-0.009794577
238	0x3bc6685e	0.006054922
239	0x3c4201a3	0.011841211
240	0x3b873040	0.004125625
241	0x3cc153ee	0.023599591
242	0x3ced093c	0.028935067
243	0x3bc044e4	0.0058675874
244	0x3bd92dd7	0.006627779
245	0x3c765df9	0.015037053
246	0xbdee24ae	-0.1162809
247	0xbba20adb	-0.0049451417
248	0xbc2e62b5	-0.010643651
249	0xbdd4d072	-0.1039132
250	0x3e449e1b	0.19200937
251	0x3bc0f3f8	0.0058884583
252	0x3c815ebf	0.015792249
253	0xbc23a41f	-0.00998786
254	0x3ad5c6ba	0.0016309835
255	0x3b5f8665	0.0034107205

edge_encoder.3.bias f4 [32]
0	0x3c71e62c	0.01476435
1	0xbb072e2c	-0.0020626886
2	0xbb7548e4	-0.003742748
3	0x3b33b98f	0.0027423834
4	0xbb6ed524	-0.003644296
5	0xbb1f56fc	-0.0024313321
6	0xbc8d026d	-0.01721307
7	0x3c224140	0.009903252
8	0xbc69312d	-0.014232916
9	0x3b9bfdb1	0.004760467
10	0xbb24ba2c	-0.002513538
11	0x3c5742f0	0.013138518
12	0xbc41cbf1	-0.011828409
13	0x3c2378d1	0.009977535
14	0xbb14f1ad	-0.0022727058
15	0xbb3b7f88	-0.002860995
16	0xbae24b61	-0.0017264896
17	0x3c3c26d3	0.011483866
18	0x3bb15e18	0.005412828
19	0xbc8316e2	-0.016002122
20	0x3c1b041c	0.009461429
21	0xbb9e91a9	-0.0048391414
22	0x3a35fff9	0.0006942745
23	0xbb32f0f5	-0.0027304266
24	0x3aebdadb	0.0017994301
25	0xb9ee5239	-0.00045456158
26	0xbb3f87a1	-0.0029225128
27	0xba326627	-0.0006805383
28	0x3c05115a	0.008121813
29	0x3a939daf	0.0011262203
30	0x3bf090b1	0.0073414673
31	0xbba6c9c9	-0.0050899726

edge_encoder.6.weight f4 [32, 32]
0	0x3d01a0b4	0.0316474
1	0xbafbdf51	-0.0019216334
2	0x3c124646	0.008927887
3	0x3b8f375e	0.004370614
4	0x3b812619	0.003941309
5	0x3a85f518	0.0010220138
6	0xbdb9f803	-0.090805076
7	0x39a35975	0.00031156433
8	0xbcfddf39	-0.03099023
9	0x3d04a472	0.03238339
10	0xbd920057	-0.07128971
11	0x3cecd556	0.02891032
12	0xbb9a4f2d	-0.0047091455
13	0x3d01e749	0.03171471
14	0xbabb803d	-0.0014305186
15	0x3c053c12	0.008131998
16	0xbd849c9e	-0.06475185
17	0xbd0bb4c6	-0.034107946
18	0xbe3af9e6	-0.18259391
19	0xbcae40e3	-0.021271175
20	0x3c82dd93	0.015974795
21	0xbccf883e	-0.02533352
22	0x3c25d387	0.010121233
23	0x3ca5e824	0.020252295
24	0x3c0a57a0	0.008443743
25	0x3bed8318	0.0072482936
26	0x3c7e9e48	0.015540667
27	0x3c5dad5b	0.013530101
28	0x3bd33d4a	0.006446515
29	0x3bd67670	0.0065448806
30	0x3b9c3c05	0.004767897
31	0x3ba3ed83	0.005002679
32	0x3c910211	0.01770118
33	0xbc0974d0	-0.008389667
34	0x3c57d252	0.013172703
35	0xbc562def	-0.013072475
36	0xb9913eff	-0.0002770349
37	0xb9c3f3a2	-0.0003737482
38	0x3c855ef8	0.016280636
39	0xbd625a22	-0.05526174
40	0x3b6bd53e	0.0035985257
41	0x3bd2fe64	0.006439017
42	0x3b0c4538	0.0021403562
43	0xbb761b2e	-0.0037552821
44	0x3a719f4a	0.00092171563
45	0xbc49cca5	-0.012316857
46	0x3bcf8e9e	0.00633414
47	0xbb9359aa	-0.004496773
48	0x3b781225	0.0037852612
49	0xbad0aca1	-0.0015920588
50	0xbba72ea7	-0.005101997
51	0x3ba307b7	0.004975285
52	0xbc21ae7b	-0.00986826
53	0xba843fa2	-0.0010089765
54	0x3c2837ea	0.010267237
55	0x3b0bf3c0	0.0021355003
56	0xbac3b3e2	-0.0014930929
57	0x3c8ac39a	0.016938973
58	0x3c473e41	0.012160839
59	0x3ac411bb	0.0014958897
60	0xbd069631	-0.032858077
61	0x3aa0c368	0.0012265267
62	0xbb3c9001	-0.0028772356
63	0xbd549b1f	-0.051905748
64	0x3ca0ad77	0.019613964
65	0x3c58a8cd	0.013223839
66	0xbc2fd729	-0.0107324505
67	0xbd581596	-0.05275496
68	0x3bb82dba	0.0056206854
69	0xbbd3f8ff	-0.0064688916
70	0xbcc8aeb1	-0.024497362
71	0xbbacb034	-0.0052700285
72	0xbc53b0c5	-0.012920563
73	0xbc7d3910	-0.015455499
74	0x3b2e750f	0.0026620065
75	0xb98947c3	-0.00026184143
76	0xbd81075b	-0.06300231
77	0xbc6b7669	-0.014371493
78	0xbcbb2f1d	-0.022849614
79	0x3d2baf66	0.04191532
80	0x3bb7d6b8	0.0056103133
81	0xbb59c7d2	-0.0033230674
82	0x3bd035e2	0.0063540796
83	0x3b58301d	0.0032987662
84	0xbd387b6f	-0.04503959
85	0x3ab94805	0.0014135843
86	0x3c25b86e	0.010114772
87	0x3ada050a	0.0016633582
88	0x3b363765	0.0027804014
89	0xbcc241e6	-0.023713063
90	0x3c85afcb	0.016319176
91	0x3ba8b8f2	0.0051490003
92	0x3c32729c	0.010891583
93	0x3b392985	0.0028253507
94	0xbd222b57	-0.039592113
95	0xbcb1417e	-0.021637674
96	0xbc059a91	-0.008154527
97	0x3c09074b	0.008363555
98	0x3d3b5c37	0.04574224
99	0xbc76120d	-0.015018952
100	0x3a96b88b	0.001149909
101	0xbc108c6f	-0.0088225445
102	0xbd909554	-0.07059732
103	0xbd47a021	-0.048736695
104	0xbb94620f	-0.004528291
105	0xbc54e49d	-0.012993959
106	0x3b399092	0.002831493
107	0xbccc208b	-0.024917861
108	0xbc1ef45f	-0.009701817
109	0xbc393267	-0.011303521
110	0x3cd42df3	0.025900817
111	0x3c245de4	0.010032151
112	0x3a568fb0	0.0008184863
113	0x3c05db39	0.008169943
114	0x3cfece73	0.031104302
115	0x3b05f583	0.0020440526
116	0x3c1fb6cc	0.009748172
117	0x3b061aaf	0.0020462682
118	0xbc516737	-0.012780956
119	0xbcceb6a1	-0.025233569
120	0xbbc223f9	-0.0059246984
121	0xbd2bd2fd	-0.04194926
122	0xbc7d2341	-0.0154503
123	0x3aa80644	0.001281925
124	0xbcf470c0	-0.02983892
125	0x379c598e	1.8638351e-05
126	0xbd3e11da	-0.046403743
127	0xbc408799	-0.011751079
128	0x3d259240	0.040422678
129	0x3bacad83	0.0052697076
130	0x3c15e8b8	0.009149723
131	0xb9b56528	-0.00034598378
132	0xbb170c79	-0.0023048206
133	0x3b98c309	0.004661922
134	0x39131a93	0.00014028912
135	0x3bdff95d	0.0068351463
136	0x3c7e301b	0.015514399
137	0xbb7d94ed	-0.0038693503
138	0xbb1a8e42	-0.0023583327
139	0xbc0185d2	-0.00790544
140	0xbc48b7ca	-0.01225085
141	0x3d92127d	0.071324326
142	0x3d999926	0.07499914
143	0xbd03f10e	-0.03221231
144	0xbc2b21a5	-0.010445033
145	0x3c0859de	0.008322207
146	0x3d0d8ea8	0.034559876
147	0x3b0c26c2	0.0021385406
148	0x3de71a9a	0.11284371
149	0x3b62a899	0.0034585355
150	0xbc89b56f	-0.016810147
151	0x3ab58389	0.0013848405
152	0xba190a23	-0.00058379973
153	0x3c9db911	0.019253286
154	0xbcd66395	-0.026170531
155	0xbbcb2892	-0.0061999047
156	0x38ef3761	0.00011406723
157	0x39c56afd	0.0003765448
158	0x3bc3f3ae	0.0059799766
159	0x3db53203	0.088474296
160	0x3c9f11be	0.01941764
161	0x3ca09c81	0.019605877
162	0xbc3d080e	-0.011537565
163	0x3bcdaed8	0.0062769465
164	0x3832b749	4.2609205e-05
165	0xbb09a3ee	-0.002100225
166	0xbc506205	-0.012718682
167	0x3d13e7f8	0.036109895
168	0x3b0de410	0.0021650828
169	0xbbe71d26	-0.0070530353
170	0x3b1b8693	0.0023731336
171	0x3bdb71e8	0.0066969283
172	0xbcba07ce	-0.0227088
173	0xbb6504bd	-0.0034945451
174	0x3b62a22e	0.003458153
175	0xbddfb5bd	-0.10923336
176	0x3b522892	0.0032067639
177	0xbb867506	-0.0041033057
178	0x3b50647b	0.0031798172
179	0x3b41518f	0.0029498076
180	0xbbe75c38	-0.007060554
181	0xba50664e	-0.0007949815
182	0x3a805f88	0.0009794096
183	0x3b43fbfb	0.002990483
184	0xbab02926	-0.0013439998
185	0x3c7ee790	0.0155581385
186	0x3ab275b7	0.0013615404
187	0x3a6c215f	0.0009007658
188	0x3c84ceb9	0.016211854
189	0xba8ee94d	-0.0010903269
190	0x3cdfe5b6	0.027331214
191	0x3cb429c2	0.021992568
192	0xbd01ef5a	-0.031722404
193	0xbcc83960	-0.024441421
194	0x3b38d136	0.0028200871
195	0x3c093f26	0.008376872
196	0x3b80e329	0.0039333296
197	0x3d0a91bd	0.033830393
198	0x3b83f52d	0.00402703
199	0x3a9d7b40	0.0012014881
200	0x3c27785e	0.010221569
201	0x3c0c4e9d	0.008563665
202	0xb9847c8a	-0.0002526979
203	0xbab68c9e	-0.0013927405
204	0x3b6ee58b	0.0036452736
205	0x39939b36	0.00028153666
206	0x3d5acbbf	0.053416964
207	0x3b066ac8	0.0020510424
208	0x3c20ef27	0.009822643
209	0xbd111f0a	-0.03542999
210	0xbe05ce72	-0.13067034
211	0xbc27af11	-0.01023461
212	0x3bd7440e	0.006569392
213	0xb7f8969d	-2.9634039e-05
214	0x3d23f530	0.04002875
215	0xbba9698c	-0.005170053
216	0x3b28595a	0.0025688023
217	0xbcbf6c92	-0.0233672
218	0xbdacc381	-0.08435727
219	0x3d005508	0.031331092
220	0xbb955387	-0.0045570764
221	0x3b571478	0.0032818597
222	0xbc4f91ac	-0.012669008
223	0xbc9f682d	-0.019458855
224	0xbd38ae49	-0.045088086
225	0x3d3b57ea	0.04573814
226	0xbc336475	-0.010949244
227	0xbb259679	-0.002526669
228	0xbb9da426	-0.004810828
229	0xbcd3fa97	-0.025876326
230	0x3da5d610	0.0809747
231	0x3b428222	0.0029679616
232	0x3cab530f	0.020913629
233	0x3d9d8007	0.07690435
234	0x3caf1ec7	0.02137698
235	0x3cd5513b	0.02603971
236	0xbd4aff2e	-0.049559765
237	0x3d1e9771	0.038718645
238	0x399cda9d	0.00029917518
239	0xbca35ba2	-0.019941155
240	0x3d2607a4	0.04053463
241	0xbc219984	-0.009863261
242	0x3ca1a480	0.01973176
243	0xbc9b6f55	-0.018973986
244	0x3d088243	0.033327352
245	0x3aa60a07	0.0012667783
246	0x3d170c7b	0.036877137
247	0xbd02a1da	-0.031892635
248	0xbc2acea0	-0.01042524
249	0x3c8af756	0.016963642
250	0x3d20b1a1	0.0392319
251	0x3c298cff	0.0103485575
252	0xbbfb4829	-0.0076685143
253	0xbb83503b	-0.004007367
254	0xbc412366	-0.011788225
255	0x3c91536f	0.01773998

edge_encoder.6.bias f4 [32]
0	0x3c0fb3eb	0.008770923
1	0x3ab83d37	0.0014056329
2	0x3b0688b9	0.002052827
3	0xbb211082	-0.002457649
4	0xba40662b	-0.0007339443
5	0x3ba6c181	0.0050889854
6	0xbbb0b197	-0.005392264
7	0xbc241240	-0.010014117
8	0xbb6277bf	-0.0034556238
9	0xbc1c73ce	-0.009549094
10	0x3b7846f1	0.0037884081
11	0x39bdcbb1	0.0003620065
12	0xbb4a493d	-0.0030866407
13	0x39a8d7e2	0.00032204302
14	0xbb135f85	-0.0022487354
15	0x3c029624	0.007970367
16	0x3c08297a	0.00831067
17	0x3bb21ac6	0.0054353205
18	0x3ba30081	0.0049744253
19	0x3bbdb3b2	0.0057892436
20	0x3b55b07e	0.0032606418
21	0xbba55ebb	-0.005046693
22	0x3b706cc5	0.0036685925
23	0x3a8aab68	0.0010579647
24	0xbb8a1dfa	-0.0042149993
25	0x3c528dff	0.012851237
26	0x3c75cfb4	0.015003134
27	0xbc0e9a3f	-0.008703767
28	0x3bd51a0e	0.00650335
29	0xbb9f2092	-0.0048561776
30	0xbae10b6e	-0.0017169544
31	0xbb9c4779	-0.0047692624
